…
[INFO] SASRec-SASRec-sub_movie: Loading user history from user_history ...
[INFO] SASRec-SASRec-sub_movie: Done. 13219 of users have history.
[INFO] SASRec-SASRec-sub_movie: Constructing dataset of task type: train
[INFO] SASRec-SASRec-sub_movie: Finished initializing <class 'unirec.data.dataset.seqrecdataset.SeqRecDataset'>
[INFO] SASRec-SASRec-sub_movie: Constructing dataset of task type: valid
[INFO] SASRec-SASRec-sub_movie: Finished initializing <class 'unirec.data.dataset.seqrecdataset.SeqRecDataset'>
[INFO] SASRec-SASRec-sub_movie: SASRec(
  (scorer_layers): InnerProductScorer()
  (item_embedding): Embedding(18730, 128, padding_idx=0)
  (position_embedding): Embedding(11, 128)
  (trm_encoder): TransformerEncoder(
    (layer): ModuleList(
      (0-1): 2 x TransformerLayer(
        (multi_head_attention): MultiHeadAttention(
          (query): Linear(in_features=128, out_features=128, bias=True)
          (key): Linear(in_features=128, out_features=128, bias=True)
          (value): Linear(in_features=128, out_features=128, bias=True)
          (attn_dropout): Dropout(p=0.5, inplace=False)
          (dense): Linear(in_features=128, out_features=128, bias=True)
          (LayerNorm): LayerNorm((128,), eps=1e-12, elementwise_affine=True)
          (out_dropout): Dropout(p=0.5, inplace=False)
        )
        (feed_forward): FeedForward(
          (dense_1): Linear(in_features=128, out_features=256, bias=True)
          (intermediate_act_fn): GELU(approximate='none')
          (dense_2): Linear(in_features=256, out_features=128, bias=True)
          (LayerNorm): LayerNorm((128,), eps=1e-12, elementwise_affine=True)
          (dropout): Dropout(p=0.5, inplace=False)
        )
      )
    )
  )
  (LayerNorm): LayerNorm((128,), eps=1e-12, elementwise_affine=True)
  (dropout): Dropout(p=0.5, inplace=False)
)
Trainable parameter number: 2664064
All trainable parameters:
item_embedding.weight : torch.Size([18730, 128])
position_embedding.weight : torch.Size([11, 128])
trm_encoder.layer.0.multi_head_attention.query.weight : torch.Size([128, 128])
trm_encoder.layer.0.multi_head_attention.query.bias : torch.Size([128])
…
